…
        "outputId": "a9094e45-c75b-445f-c0a9-7656e04e461f",
        "colab": {
          "base_uri": "https://localhost:8080/"
        }
      },
      "execution_count": 6,
      "outputs": [
        {
          "output_type": "stream",
          "name": "stdout",
          "text": [
            "Model: \"sequential\"\n",
            "_________________________________________________________________\n",
            " Layer (type)                Output Shape              Param #   \n",
            "=================================================================\n",
            " conv2d (Conv2D)             (None, 28, 28, 64)        320       \n",
            "                                                                 \n",
            " max_pooling2d (MaxPooling2D  (None, 14, 14, 64)       0         \n",
            " )                                                               \n",
            "                                                                 \n",
            " dropout (Dropout)           (None, 14, 14, 64)        0         \n",
            "                                                                 \n",
            " conv2d_1 (Conv2D)           (None, 14, 14, 32)        8224      \n",
            "                                                                 \n",
            " max_pooling2d_1 (MaxPooling  (None, 7, 7, 32)         0         \n",
            " 2D)                                                             \n",
            "                                                                 \n",
            " dropout_1 (Dropout)         (None, 7, 7, 32)          0         \n",
            "                                                                 \n",
            " flatten (Flatten)           (None, 1568)              0         \n",
            "                                                                 \n",
            " dense (Dense)               (None, 256)               401664    \n",
            "                                                                 \n",
            " dropout_2 (Dropout)         (None, 256)               0         \n",
            "                                                                 \n",
            " dense_1 (Dense)             (None, 10)                2570      \n",
            "                                                                 \n",
            "=================================================================\n",
            "Total params: 412,778\n",
            "Trainable params: 412,778\n",
            "Non-trainable params: 0\n",
            "_________________________________________________________________\n"
          ]
        }
…
